identifysex/ptfiles/linearsex.pt (torch, 72617 bytes, 8 tensors)

batchnorm.weight f4 [128]
1.1347563 0.8767859 1.1345944 1.0487437 0.9698188 0.8117792 1.0066061 1.0319715
0.9671598 1.1025938 1.0775216 1.1891135 1.028595 0.92872524 0.909259 1.3383337
0.7980101 1.110273 0.80384123 0.83248895 1.2779515 1.0675036 0.94288427 0.9580668
0.8314379 1.2388564 0.8337615 1.0709789 1.2660726 1.0910004 1.008454 1.2873373
1.043509 1.0833188 0.99288297 0.95962757 0.9546389 1.1703863 1.1725681 1.1890897
1.1830306 1.0575275 1.0453031 0.8871342 1.1335558 1.45304 0.8840615 0.8484714
1.1193047 0.99731946 1.2846761 1.0894655 1.2135004 1.2643251 0.9951447 1.0595617
1.0169563 1.1352257 1.2156566 1.1868021 1.0564439 0.9401196 0.64432085 1.0586448
1.0622184 1.1746929 0.81995624 0.5600624 0.9303808 0.7117502 0.9633679 0.87756413
0.6693868 1.016741 0.90199757 1.1584404 1.2968785 0.8255135 1.0992792 0.9839045
0.8656223 0.9121084 1.0495031 1.6191435 1.0386322 1.0614598 1.199109 0.67290956
0.7835992 1.0104462 1.1011766 1.1352466 1.0302553 1.0644135 1.1852224 1.0491663
0.9932845 0.825215 0.9236741 1.2338325 1.0888625 0.9989054 1.0246809 1.053179
1.0215247 0.911909 1.1083021 0.69783044 0.86967635 1.085612 1.2242159 0.79347545
1.0708407 1.0592748 1.2151685 1.2942282 1.0527127 0.95352083 0.8007426 1.0449682
1.1187878 1.06044 1.0441936 1.233441 1.2606939 0.8965474 1.0892617 0.8089512
00000000: b23f 913f 0a75 603f 643a 913f 3c3d 863f
00000010: 0b46 783f c3d0 4f3f 78d8 803f a417 843f
00000020: c997 773f cb21 8d3f 3aec 893f df34 983f
00000030: 00a9 833f f0c0 6d3f 33c5 683f 854e ab3f
00000040: 644a 4c3f 6d1d 8e3f 8ac8 4d3f ff1d 553f
00000050: ea93 a33f f5a3 883f dd60 713f de43 753f
00000060: 1dd9 543f d992 9e3f 6571 553f d615 893f
00000070: ab0e a23f e7a5 8b3f 0515 813f 78c7 a43f
00000080: b491 853f 31aa 8a3f 942d 7e3f 27aa 753f
00000090: 3763 743f 38cf 953f b616 963f 1734 983f
000000a0: 8c6d 973f 105d 873f 7ecc 853f 3a1b 633f
000000b0: 5b18 913f 37fd b93f db51 623f 6c35 593f
000000c0: 6045 8f3f 5450 7f3f 4470 a43f 9b73 8b3f
000000d0: fb53 9b3f 68d5 a13f cec1 7e3f b89f 873f
000000e0: a02b 823f 134f 913f a39a 9b3f 22e9 973f
000000f0: 8e39 873f aeab 703f 36f2 243f ac81 873f
00000100: c6f6 873f 565c 963f a7e8 513f 4060 0f3f
00000110: 702d 6e3f 4335 363f 479f 763f 0ba8 603f
00000120: ef5c 2b3f 9224 823f 50e9 663f c647 943f
00000130: 1d00 a63f da54 533f 2eb5 8c3f 2ae1 7b3f
00000140: 6c99 5d3f f07f 693f 1e56 863f 1840 cf3f
00000150: e6f1 843f eadd 873f 677c 993f cd43 2c3f
00000160: f599 483f 4d56 813f 5bf3 8c3f c34f 913f
00000170: 68df 833f b43e 883f 5eb5 973f 154b 863f
00000180: e547 7e3f 4a41 533f e875 6c3f 39ee 9d3f
00000190: d95f 8b3f 44b8 7f3f be28 833f 92ce 863f
000001a0: 52c1 823f de72 693f d8dc 8d3f 04a5 323f
000001b0: 1ca3 5e3f 56f5 8a3f 1bb3 9c3f 3521 4b3f
000001c0: 4f11 893f 5196 873f a48a 9b3f 45a9 a53f
000001d0: 4abf 863f f119 743f 78fd 4c3f 85c1 853f
000001e0: 7034 8f3f 7fbc 873f 23a8 853f 65e1 9d3f
000001f0: 6b5e a13f 2184 653f ed6c 8b3f 6d17 4f3f

batchnorm.bias f4 [128]
-0.050459083 -0.28207076 0.3753609 -0.16625689 -0.27355596 -0.041429404 0.3466168 -0.2394322
-0.07063847 0.27118394 0.17223305 -0.19042657 0.047185145 0.18229312 0.44835815 0.19472234
0.31869477 0.1042748 -0.5609907 -0.18161893 -0.10294355 -0.1650905 -0.021730796 -0.4518351
-0.16919324 -0.093196556 0.40319148 -0.065352365 0.078066 0.08175893 0.28577816 0.24980211
0.049638458 0.5148831 -0.007537495 -0.031048534 0.23847137 -0.1734701 0.3303758 -0.009309101
0.05028805 -0.50187075 0.16286357 -0.21303512 -0.0057718717 -0.31413844 -0.013617249 0.36290884
0.12547642 -0.21702594 -0.3629012 -0.18007402 -0.42955518 -0.24705163 0.33344182 0.12766552
0.113472745 0.44283524 -0.55509764 -0.19159684 0.017662385 -0.106639 -0.29760543 0.12557991
0.14178985 0.16325133 0.37609458 -0.12384615 0.5573291 0.17014961 0.29272106 -0.14496884
0.112885945 0.11002367 0.08641028 -0.22351374 -0.08659327 -0.20426571 0.5247566 -0.37349516
-0.3355883 0.4446824 -0.10698783 -0.26512936 -0.08554149 -0.10981584 -0.022038348 -0.123061314
-0.34234965 -0.2161892 0.22095102 -0.001713033 -0.24542615 -0.55557764 -0.16029432 -0.30537373
-0.28943974 -0.034639925 0.29825747 -0.1321784 0.16257456 0.074027896 0.6020921 -0.1186898
-0.255746 0.22066821 -0.033685274 -0.5735031 -0.002004742 0.15488882 0.3198056 -0.008078854
0.6959572 -0.28353265 -0.12178405 0.32062027 -0.514686 -0.07290933 -0.6959714 0.046772458
-0.13545324 0.23695244 0.405127 -0.23493654 -0.51557076 -0.07437052 -0.32187006 0.3462987
00000000: 2fae 4ebd 946b 90be 4e2f c03e 3f3f 2abe
00000010: 870f 8cbe e1b1 29bd c277 b13e b72d 75be
00000020: e7aa 90bd 9fd8 8a3e dc5d 303e 2fff 42be
00000030: 3645 413d 0cab 3a3e 338f e53e 4b65 473e
00000040: f62b a33e 078e d53d 169d 0fbf 50fa 39be
00000050: 11d4 d2bd 7c0d 29be c804 b2bc ee56 e7be
00000060: fe40 2dbe d6dd bebd 1d6f ce3e 76d7 85bd
00000070: 11e1 9f3d 3a71 a73d 8451 923e 20cc 7f3e
00000080: b251 4b3d 61cf 033f 17fd f6bb 7f59 febc
00000090: d731 743e 25a2 31be 0427 a93e 3385 18bc
000000a0: d8fa 4d3d 9a7a 00bf b5c5 263e e125 5abe
000000b0: f821 bdbb c1d6 a0be e21a 5fbc 30cf b93e
000000c0: e47c 003e 0c3c 5ebe 30ce b9be 5365 38be
000000d0: a8ee dbbe 1afb 7cbe e3b8 aa3e c0ba 023e
000000e0: 6664 e83d 4dbb e23e e11a 0ebf f631 44be
000000f0: b5b0 903c 8c65 dabd bd5f 98be 0598 003e
00000100: 5c31 113e 5b2b 273e 788f c03e 0da3 fdbd
00000110: 1fad 0e3f b33b 2e3e 89df 953e b672 14be
00000120: bf30 e73d 1754 e13d dff7 b03d c9e0 64be
00000130: d057 b1bd 082b 51be 7356 063f c23a bfbe
00000140: 3bd2 abbe 69ad e33e 6f1c dbbd 09bf 87be
00000150: 6030 afbd 21e7 e0bd c489 b4bc 9207 fcbd
00000160: 7448 afbe b460 5dbe fc40 623e d987 e0ba
00000170: fe50 7bbe 563a 0ebf 3224 24be f259 9cbe
00000180: 7231 94be 98e2 0dbd 34b5 983e c659 07be
00000190: f279 263e f09b 973d b522 1a3f a313 f3bd
000001a0: 24f1 82be d9f6 613e 92f9 09bd 19d1 12bf
000001b0: fd61 03bb 2d9b 1e3e 8fbd a33e 2b5d 04bc
000001c0: 402a 323f 312b 91be ea69 f9bd 5728 a43e
000001d0: 76c2 03bf 7d51 95bd 2f2b 32bf 7a94 3f3d
000001e0: 41b4 0abe a9a3 723e ce6c cf3e 3493 70be
000001f0: 72fc 03bf 924f 98bd 27cc a4be 104e b13e

batchnorm.running_mean f4 [128]
-0.07898258 0.07180972 0.054425914 -0.08482597 -0.10893288 -0.014674823 -0.08756095 -0.108268775
0.13968301 -0.14405109 0.19468245 -0.07248766 -0.18374172 -0.01941789 -0.054279864 0.20527336
-0.1783969 -0.16490875 -0.023033263 0.0075400462 0.06356739 0.03950077 -0.0064304452 0.06696768
-0.11931641 -0.32106838 -0.09717807 -0.04521387 -0.014925105 -0.057413187 -0.050611082 0.045588855
-0.18068065 -0.013361831 0.04578422 0.11146671 0.0023831888 -0.09377386 0.16723207 0.023542887
-0.28242877 0.062188804 0.086633004 0.24382912 0.18149449 0.0015111337 -0.0049285046 -0.14127561
0.13056612 -0.17929134 0.041279785 0.13255744 0.07852217 0.050019935 0.016088104 -0.12327314
0.03693104 0.13859507 -0.15170507 0.0049515064 0.09615646 -0.056345943 0.03192115 -0.10401859
0.18744455 0.088743836 -0.0986221 -0.21315268 0.11004435 -0.15035619 -0.10329329 0.07730897
-0.14631237 -0.17869358 -0.29923454 -0.0025128564 0.3494919 0.13209894 -0.17542332 0.077263676
0.0035472456 -0.021855043 0.10614337 0.17151484 0.011192455 0.04160685 -0.07211421 0.011628896
0.26003087 -0.04079273 -0.016537188 0.21200126 -0.009845321 0.04873576 0.022608293 0.030994283
-0.08812345 0.04084792 -0.163246 -0.021707434 -0.02952396 0.0049815895 -0.014230695 0.13293238
-0.16851689 0.1346836 -0.021810807 -0.0068515427 -0.02041411 0.02574615 -0.07028013 -0.04782787
0.12529579 -0.20668802 0.16441508 0.15887955 0.086343296 0.09778365 0.12333831 0.07201106
-0.0007283115 -0.012715601 -0.2114533 -0.020320045 0.095631324 -0.04967432 0.10226361 0.021741856
00000000: 9ec1 a1bd f910 933d b5ed 5e3d 3db9 adbd
00000010: 3418 dfbd ab6e 70bc 2853 b3bd 05bc ddbd
00000020: 1009 0f3e 2182 13be d65a 473e 6974 94bd
00000030: ca26 3cbe 4412 9fbc 9054 5ebd 2e33 523e
00000040: adad 36be d7dd 28be 41b0 bcbc 7e12 f73b
00000050: 9f2f 823d 8fcb 213d 7cb6 d2bb 5a26 893d
00000060: 295c f4bd 1363 a4be 4c05 c7bd 2e32 39bd
00000070: 6d88 74bc 172a 6bbd 914d 4fbd 61bb 3a3d
00000080: 5904 39be 95eb 5abc 3c88 3b3d a948 e43d
00000090: 462f 1c3b 820c c0bd e23e 2b3e 03dd c03c
000000a0: 819a 90be b0b9 7e3d a56c b13d 57ae 793e
000000b0: b1d9 393e 3c11 c63a 4b7f a1bb 8eaa 10be
000000c0: 20b3 053e 2698 37be fe14 293d 23bd 073e
000000d0: 3bd0 a03d b4e1 4c3d 33cb 833c a176 fcbd
000000e0: 0145 173d deeb 0d3e 9358 1bbe 3f40 a23b
000000f0: aeed c43d 01cb 66bd c0bf 023d b307 d5bd
00000100: 77f1 3f3e 54bf b53d 62fa c9bd b244 5abe
00000110: ef5e e13d f9f6 19be 6f8b d3bd 2a54 9e3d
00000120: e9d2 15be 73fb 36be 4535 99be bcae 24bb
00000130: 9af0 b23e f244 073e 2ca2 33be 6b3c 9e3d
00000140: e878 683b 5909 b3bc b261 d93d 96a1 2f3e
00000150: 8f60 373c f26b 2a3d 9db0 93bd 2087 3e3c
00000160: c422 853e 4716 27bd ff78 87bc dc16 593e
00000170: 454e 21bc 269f 473d 0735 b93c b9e7 fd3c
00000180: 117a b4bd 2650 273d f629 27be cad3 b1bc
00000190: 3bdc f1bc 9a3c a33b dc27 69bc 6d1f 083e
000001a0: b18f 2cbe 7fea 093e 94ac b2bc e882 e0bb
000001b0: 7e3b a7bc 97e9 d23c 07ef 8fbd 28e7 43bd
000001c0: 8a4d 003e 06a6 53be 6d5c 283e 52b1 223e
000001d0: c1d4 b03d cb42 c83d cc98 fc3d 897a 933d
000001e0: 28ec 3eba 1955 50bc 3787 58be 3976 a6bc
000001f0: 5bda c33d 4d77 4bbd 956f d13d fa1b b23c

batchnorm.running_var f4 [128]
0.0014360818 0.0015779313 0.0014993004 0.0016688531 0.0012190455 0.0012862793 0.001245974 0.0014047929
0.0011787178 0.0018614234 0.0015783123 0.0018503129 0.0011708235 0.0023427585 0.0009796503 0.001689582
0.001218065 0.0010799341 0.0012923919 0.0010425148 0.0015078771 0.0013933775 0.0013595362 0.0011141262
0.0013987389 0.0016283833 0.00081992813 0.0011262092 0.0025097358 0.0010501525 0.0013175916 0.0019259957
0.0010574865 0.0017117324 0.000951234 0.0014971043 0.0009931228 0.0017681605 0.001114335 0.0013153126
0.0021670063 0.0014411786 0.0015002696 0.0010593918 0.001238923 0.0017187732 0.0008611154 0.0013202248
0.0010610634 0.0015272581 0.0017139347 0.0011154043 0.0014319301 0.0010545219 0.001091447 0.0010162017
0.0012356242 0.0012690872 0.0014358328 0.0014609193 0.0010561484 0.0016166498 0.0014354391 0.001625993
0.0014822385 0.0020037363 0.000993376 0.0013729553 0.0010738458 0.0012009976 0.0012015027 0.001229428
0.00087889127 0.001006378 0.0015853461 0.0013784785 0.0018684508 0.0012018244 0.0013078145 0.001493849
0.0014215247 0.0015731492 0.0017538354 0.0016303178 0.0014957715 0.0014492283 0.0012145053 0.0014497378
0.0010053985 0.0009948731 0.001157848 0.0011296949 0.0011542653 0.001383186 0.001071469 0.001386996
0.0011295822 0.0010188327 0.0013728398 0.001409057 0.002181069 0.0014409608 0.0010039222 0.0011336465
0.0013143505 0.0014647136 0.0009238322 0.0015101695 0.0019018328 0.0018993753 0.0016453764 0.0010960464
0.0007734305 0.001109984 0.0015903101 0.0009971472 0.0016318375 0.0010612223 0.0012662476 0.0012218192
0.0010347705 0.0016373013 0.0013755936 0.0010162573 0.0012631946 0.0012691305 0.0018320171 0.0009935527
00000000: e93a bc3a 97d2 ce3a 2c84 c43a 6bbd da3a
00000010: 61c8 9f3a 5f98 a83a f34f a33a 0721 b83a
00000020: 357f 9a3a 01fb f33a 5fdf ce3a 3386 f23a
00000030: 5176 993a f788 193b 9c67 803a f774 dd3a
00000040: 7ba7 9f3a 938c 8d3a 7a65 a93a fea4 883a
00000050: f6a3 c53a fea1 b63a 7732 b23a df07 923a
00000060: e455 b73a 7a6f d53a 72f0 563a 4f9d 933a
00000070: 617a 243b 45a5 893a 0ab3 ac3a b171 fc3a
00000080: 5c9b 8a3a 355c e03a 3c5c 793a 7c3a c43a
00000090: ac2b 823a 9fc1 e73a e10e 923a 9166 ac3a
000000a0: 5504 0e3b eee5 bc3a b2a4 c43a 4adb 8a3a
000000b0: 5c63 a23a 7548 e13a 7abc 613a 650b ad3a
000000c0: 6113 8b3a 472e c83a 1ba6 e03a c232 923a
000000d0: 9aaf bb3a e237 8a3a e20e 8f3a 1232 853a
000000e0: abf4 a13a 8057 a63a 8e32 bc3a 517c bf3a
000000f0: 766e 8a3a c4e5 d33a 5825 bc3a 461f d53a
00000100: ac47 c23a 1e51 033b 2b34 823a bcf4 b33a
00000110: 49c0 8c3a cb6a 9d3a be7b 9d3a c224 a13a
00000120: 6565 663a 71e8 833a 63cb cf3a 10ae b43a
00000130: cee6 f43a 8986 9d3a f96a ab3a 41cd c33a
00000140: 7452 ba3a 2132 ce3a f3e0 e53a 63b0 d53a
00000150: c30d c43a 08f4 bd3a 0930 9f3a 2105 be3a
00000160: 93c7 833a 6766 823a efc2 973a 4512 943a
00000170: b74a 973a 054c b53a 8970 8c3a ddcb b53a
00000180: 7d0e 943a 5a8a 853a dcf0 b33a 1bb0 b83a
00000190: 44f0 0e3b 9fde bc3a 0a96 833a dd96 943a
000001a0: 4946 ac3a a2fb bf3a 542d 723a e1f0 c53a
000001b0: eb46 f93a 76f4 f83a aca9 d73a 37a9 8f3a
000001c0: 0bc0 4a3a e27c 913a f471 d03a b5b2 823a
000001d0: 61e3 d53a b618 8b3a 38f8 a53a 7325 a03a
000001e0: 23a1 873a b79a d63a 434d b43a f033 853a
000001f0: c791 a53a f458 a63a 4b20 f03a 193a 823a

map_fc.weight f4 [128, 128]
-0.7172476 0.24752583 -0.4316158 0.28274754 -0.21813442 0.24031444 -0.1622439 0.5640322
0.2941165 0.17901935 0.19681904 -0.008529544 -0.046341803 -0.38330105 -0.8440612 0.24224606
-0.37856036 -0.036862493 0.6641797 0.31024787 0.68876684 0.19928211 -0.7987925 0.3057952
-0.049908925 0.23381156 0.01327539 0.02451164 -0.3744406 -0.12613308 0.4755006 -0.66141367
-0.14480662 -0.076125346 -0.34277374 -0.1490478 -0.05798113 0.59931576 -0.33497083 0.098899454
0.41025823 0.28032562 -0.106658235 0.7512419 -0.39847255 0.47338808 -0.38074404 -0.13518028
-0.34181044 -0.2182921 0.09107411 0.33775505 0.7366919 0.05974688 -0.4179212 -0.1516512
-0.13852742 0.13480644 -0.19459917 0.49208558 -0.47052622 0.6006141 -0.0322849 0.15245901
-0.11778163 0.27084073 -0.14544731 -0.19142924 -0.37520975 -0.35482487 -0.16958487 0.03064693
0.2969603 -0.28983873 0.097434424 0.24202637 -0.16898046 -0.16547835 -0.18747151 -0.35833222
0.5574099 0.12210543 -0.038663246 -0.20665406 -0.23738414 -0.36552942 0.0066356584 -0.007858271
-0.037479863 -0.05447074 -0.13473895 -0.39675206 0.15063888 -0.24624287 -0.2758488 -0.430254
0.5925522 0.43091664 0.20572226 0.22849797 -0.28880456 -0.123959154 -0.3715481 -0.2596294
0.24680322 -0.23459852 0.45174524 -0.12081157 -0.38441435 -0.3093928 -0.8760305 0.696478
-0.115627654 0.12805983 1.0434246 -0.027472077 0.56344604 0.22682224 0.14357202 -0.24224474
0.39088646 -0.14667004 0.38592204 -0.22128524 0.43809083 -0.39494497 0.1733575 -0.9184674
-0.39966 0.29326338 -0.33977798 0.44908392 0.27638403 -0.23475277 0.17732418 0.08817672
0.1202757 -0.10312064 -0.12035931 -0.115346454 0.44411048 0.026036499 -0.39254048 0.2694853
0.05158894 -0.21737432 0.070438355 0.0065549607 0.19814083 0.22697173 -0.11158538 0.35949874
-0.16620849 -0.0526259 -0.27217612 -0.22860053 -0.16507737 -0.17834601 0.34860626 -0.29031044
-0.43204606 -0.16552617 0.042511202 -0.062421594 0.3927289 -0.4326 0.091999315 -0.11099435
-0.2408636 -0.18515697 0.134643 0.4806635 -0.19309732 -0.7336917 -0.016502485 -0.075065844
0.65714353 -0.24750537 -0.03082306 -0.6012632 -0.04347486 0.20618327 -0.16455755 0.06383189
-0.024158461 -0.12476604 0.03540873 0.277533 -0.032400366 0.14826882 0.008858437 -0.2695122
0.091782466 0.36845413 0.26669708 0.15120658 -0.24841622 -0.3271785 0.12787023 -0.28285646
-0.0018049452 -0.099565364 -0.3267251 -0.23368208 0.3437606 0.03469088 -0.04666971 0.4942943
0.22527467 0.09239391 0.3745013 0.833188 0.12023239 0.41012996 0.3738541 0.48964116
0.389817 0.10238626 -0.39701384 -0.1793064 0.017649993 -0.023241783 0.36225703 -0.12973526
-0.034107056 -0.31374046 0.061661948 0.41809824 -0.16059399 0.052560236 -0.3905145 0.06588665
0.19495052 -0.21099357 0.21879241 0.2222398 0.26746923 -0.16193627 -0.37383085 -0.17278522
-0.21459854 0.6730232 0.14820525 -0.67285466 -0.17740285 0.3200213 0.1473936 0.35667285
0.0147654405 0.41482863 0.08114989 0.44629714 0.56048393 0.005352744 0.10546061 -0.48950684
00000000: 8a9d 37bf 6977 7d3e bffc dcbe 49c4 903e
00000010: a15e 5fbe fd14 763e 4423 26be 6a64 103f
00000020: 7096 963e d950 373e ee8a 493e 80bf 0bbc
00000030: e7d0 3dbd 0940 c4be 6514 58bf 5a0f 783e
00000040: aad2 c1be 20fd 16bd ae07 2a3f cfd8 9e3e
00000050: 0653 303f 9c10 4c3e aa7d 4cbf 3091 9c3e
00000060: 4d6d 4cbd 4c6c 6f3e 0581 593c a3cc c83c
00000070: aeb6 bfbe 0829 01be d174 f33e 6852 29bf
00000080: 3048 14be 9be7 9bbd 0a80 afbe fd9f 18be
00000090: 9f7d 6dbd c26c 193f 4c81 abbe cc8b ca3d
000000a0: 5e0d d23e d786 8f3e a26f dabd 6451 403f
000000b0: 9804 ccbe ec5f f23e e2f0 c2be b36c 0abe
000000c0: c701 afbe f787 5fbe 1085 ba3d 3bee ac3e
000000d0: d797 3c3f 25b9 743d c4f9 d5be 744a 1bbe
000000e0: 22da 0dbe b30a 0a3e 0145 47be a4f2 fb3e
000000f0: d0e8 f0be d8c1 193f 2c3d 04bd 371e 1c3e
00000100: 7f37 f1bd a3ab 8a3e 24f0 14be 0706 44be
00000110: 7e1b c0be 9bab b5be a8a7 2dbe 450f fb3c
00000120: 2e0b 983e be65 94be b38b c73d c3d5 773e
00000130: 3709 2dbe 2873 29be 88f8 3fbe 5277 b7be
00000140: 6ab2 0e3f 6912 fa3d 5a5d 1ebd 1f9d 53be
00000150: d414 73be ac26 bbbe f06f d93b fabf 00bc
00000160: 7c84 19bd b61c 5fbd 02f9 09be 1623 cbbe
00000170: 1441 1a3e 1727 7cbe 0e3c 8dbe 414a dcbe
00000180: 80b1 173f 1ba1 dc3e dba8 523e 5ffb 693e
00000190: 31de 93be 4cde fdbd 8d3b bebe 25ee 84be
000001a0: fcb9 7c3e 983a 70be 274b e73e 0e6c f7bd
000001b0: f5d1 c4be bc68 9ebe 8943 60bf 624c 323f
000001c0: 31ce ecbd 1e22 033e f08e 853f 1f0d e1bc
000001d0: 003e 103f 1744 683e 8b04 133e 010f 78be
000001e0: 4522 c83e ac30 16be 9397 c53e 9998 62be
000001f0: 714d e03e 3a36 cabe a184 313e ae20 6bbf
00000200: 3ca0 ccbe 9e26 963e 61f7 adbe 54ee e53e
00000210: 3582 8d3e 0863 70be 7894 353e ff95 b43d
00000220: 1b53 f63d ea30 d3bd f17e f6bd c33a ecbd
00000230: 7362 e33e 7f4a d53c 11fb c8be faf9 893e
00000240: ed4e 533d 6097 5ebe fc41 903d ffca d63b
00000250: 6ee5 4a3e 476b 683e e086 e4bd 3810 b83e
00000260: 8f32 2abe 418e 57bd ab5a 8bbe 4216 6abe
00000270: 0b0a 29be 56a0 36be 857c b23e 92a3 94be
00000280: 2435 ddbe b17f 29be 3a20 2e3d c9ad 7fbd
00000290: c313 c93e bf7d ddbe 236a bc3d 0151 e3bd
000002a0: f3a4 76be ca99 3dbe dbdf 093e 8719 f63e
000002b0: 4ebb 45be 38d3 3bbf 3830 87bc 1fbc 99bd
000002c0: 8f3a 283f 0c72 7dbe a480 fcbc 63ec 19bf
000002d0: b212 32bd b521 533e c681 28be 4bba 823d
000002e0: f7e7 c5bc 5685 ffbd bf08 113d ce18 8e3e
000002f0: 3fb6 04bd c8d3 173e fa22 113c 81fd 89be
00000300: 72f8 bb3d 05a6 bc3e 858c 883e e6d5 1a3e
00000310: d260 7ebe f183 a7be 6af0 023e 90d2 90be
00000320: e993 ecba ede8 cbbd 8348 a7be 5b4a 6fbe
00000330: 6401 b03e 0618 0e3d bd28 3fbd 2414 fd3e
00000340: 67ae 663e 0539 bd3d a2be bf3e cf4b 553f
00000350: 663c f63d 8efc d13e ce69 bf3e 3fb2 fa3e
00000360: 1896 c73e e3af d13d 6645 cbbe 199c 37be
00000370: b896 903c 8d65 bebc c179 b93e 52d9 04be
00000380: d7b3 0bbd 97a2 a0be 3d91 7c3d f910 d63e
00000390: c072 24be 6749 573d 84f1 c7be 94ef 863d
000003a0: 1ca1 473e b30e 58be 1e0b 603e d592 633e
000003b0: baf1 883e 9fd2 25be c266 bfbe 9cee 30be
000003c0: b8bf 5bbe 404b 2c3f 1ec3 173e 3440 2cbf
000003d0: 18a9 35be d5d9 a33e 59ee 163e d39d b63e
000003e0: bfea 713c 6b64 d43e ea31 a63d 0f81 e43e
000003f0: e07b 0f3f 1266 af3b bbfb d73d a4a0 fabe

map_fc.bias f4 [128]
-0.17182273 -0.5101059 -0.55011255 -0.30486712 -0.6770932 -0.31992438 -0.61355615 -0.8266859
-0.53586906 -0.7515876 -0.51912093 -0.7860538 -0.37691686 -0.7909595 -0.73984855 -0.50079215
-0.6196483 -0.30801216 -0.40727913 -0.66276777 0.14821303 -0.794627 -0.3394742 -0.73979485
-0.40548435 -0.35390744 -0.14528054 -0.10377539 -0.9261613 -0.5035544 -0.1551269 -0.85394007
-0.75742424 -0.1415212 -0.8717902 0.027950468 -0.2635063 -0.6022595 -0.13827784 -0.44692773
-0.5074069 -0.31492007 -1.1450492 -0.489278 -0.36367378 -0.7025554 -0.36647806 -0.33555436
-0.6358449 -0.4770428 -0.7585753 -0.2567386 -0.39620578 -0.06624992 -0.46724978 -0.7308476
-0.51464677 -0.469917 -1.3110895 -0.37582028 -0.86602217 -1.2127315 -0.45517045 -0.58337486
-0.51383305 -0.49691063 -0.14367098 -0.050856102 -0.46817145 -0.40306056 -0.17745511 -0.4140318
-0.6331939 -0.23839198 -0.70987284 -0.6731185 -0.5501689 -0.8182526 -0.39565426 0.11990218
-0.33332497 -0.15981099 -0.82116956 -0.48322517 0.03171566 -0.7089657 -0.7982827 -0.34268644
-0.55081713 -0.88441205 -0.24122284 -1.0937265 -0.53683054 -0.18942669 -0.37941617 -0.5966944
-0.5205203 -0.4623887 -0.9400824 -0.23263307 -0.02120792 -0.38475698 -0.28143638 -0.49552754
-0.5724531 -0.86815494 -0.3474234 -0.7149704 -0.43268058 -0.31742936 -0.5162237 -0.49144512
-0.6780422 0.12424687 -0.58868665 -0.29454845 -0.64339215 -0.03578063 -0.39239836 -0.54748267
-0.27553207 -0.57066536 -0.24027768 -0.5357994 -0.28951603 -0.71331036 -0.6533166 -0.813589
00000000: 4cf2 2fbe 4d96 02bf 2dd4 0cbf 8b17 9cbe
00000010: fb55 2dbf 21cd a3be 0412 1dbf b0a1 53bf
00000020: b72e 09bf 0c68 40bf 1ce5 04bf d23a 49bf
00000030: 3ffb c0be 527c 4abf b766 3dbf ea33 00bf
00000040: 45a1 1ebf c5b3 9dbe e486 d0be 26ab 29bf
00000050: 28c5 173e ad6c 4bbf 90cf adbe 3263 3dbf
00000060: a59b cfbe 5b33 b5be 6cc4 14be 3188 d4bd
00000070: e818 6dbf f1e8 00bf 96d9 1ebe d19b 5abf
00000080: 8ee6 41bf efea 10be a42d 5fbf 61f8 e43c
00000090: 4cea 86be ae2d 1abf b598 0dbe b6d3 e4be
000000a0: 6be5 01bf 343d a1be f990 92bf a582 fabe
000000b0: 7333 babe acda 33bf 03a3 bbbe c8cd abbe
000000c0: bbc6 22bf f43e f4be fe31 42bf 3e73 83be
000000d0: 7cdb cabe 0aae 87bd 5d3b efbe d418 3bbf
000000e0: e4bf 03bf f698 f0be c8d1 a7bf 846b c0be
000000f0: a1b3 5dbf c93a 9bbf 1a0c e9be 0e58 15bf
00000100: 908a 03bf 126b febe 7c1e 13be 7d4e 50bd
00000110: 2bb4 efbe f45d cebe cbb6 35be fafb d3be
00000120: ff18 22bf 071d 74be 3aba 35bf 7e51 2cbf
00000130: ded7 0cbf 0179 51bf 3293 cabe 468f f53d
00000140: 92a9 aabe 7ea5 23be 2b38 52bf 4a69 f7be
00000150: 48e8 013d c77e 35bf 415c 4cbf 9974 afbe
00000160: 5a02 0dbf d468 62bf 1f03 77be 3bff 8bbf
00000170: ba6d 09bf 12f9 41be d642 c2be f7c0 18bf
00000180: d240 05bf 36be ecbe 3da9 70bf 5d37 6ebe
00000190: 3bbc adbc defe c4be 6e18 90be c9b5 fdbe
000001a0: 498c 12bf 673f 5ebf 7be1 b1be 4d08 37bf
000001b0: 4f88 ddbe 1a86 a2be 3d27 04bf b29e fbbe
000001c0: 2c94 2dbf 2575 fe3d 2bb4 16bf 0ecf 96be
000001d0: 59b5 24bf b68e 12bd 70e8 c8be d327 0cbf
000001e0: 8a12 8dbe 2017 12bf 5a0b 76be 262a 09bf
000001f0: 723b 94be 829b 36bf c23f 27bf 5e47 50bf

fc.weight f4 [2, 128]
-0.32863888 0.2500857 -0.41069326 -0.02880028 0.2940622 -0.35237837 -0.2509828 0.32860678
0.19018 -0.28187633 0.36070096 0.16678256 0.17715092 0.42776316 0.31525627 0.16001512
0.2295069 -0.21300486 0.25725344 -0.13704525 -0.067755446 -0.12737691 -0.24514933 0.27715337
0.3148777 -0.22864285 -0.13095076 0.11264459 0.22617751 -0.33136275 -0.43666837 0.064627185
0.2780805 -0.18615322 0.30435616 -0.13666692 0.2905252 0.39885408 0.25753808 -0.4591138
0.3180736 -0.18494165 0.11386327 0.23802921 -0.16102062 -0.12472136 -0.28420258 -0.21593115
-0.318266 0.20498878 0.15639554 -0.47106245 0.3665482 -0.14562279 -0.36281773 0.35269338
0.22286169 0.19034608 0.22560857 0.2771668 -0.16530067 -0.39473876 -0.46589166 0.23678185
-0.18240476 -0.09620491 0.12746798 -0.13359627 0.2343732 0.41086516 0.33395293 0.16991286
-0.19435437 0.19197863 0.123600036 0.1921453 -0.51490295 0.11833317 -0.4238372 -0.091344275
-0.22803536 0.18611394 -0.21066132 -0.17496471 -0.20040628 0.37019387 0.3368067 0.24849212
-0.04581481 -0.0264819 -0.16824597 0.21175572 -0.2986454 -0.1949494 0.309698 0.23771091
-0.26101512 -0.34821555 -0.13800663 -0.2136614 -0.2418004 -0.24463692 -0.1722489 -0.03482793
-0.21242636 0.09231238 0.12769942 0.26218146 0.3119542 -0.21112283 0.17596366 0.14544673
-0.31893742 -0.2037697 -0.18141027 0.33326668 0.21134618 -0.06331188 0.280334 0.2612369
0.21141173 -0.29637134 -0.3801222 0.32314438 -0.19389907 0.15717651 0.32112995 0.16890006
0.40212622 -0.23640275 0.3828235 0.1376629 -0.37465742 0.25442308 0.17656316 -0.22114877
-0.28735006 0.2542008 -0.2631092 -0.09468929 -0.21192501 -0.38207766 -0.27248538 -0.11371729
-0.23651081 0.29659745 -0.2435773 0.22523253 0.09984264 0.10114245 0.10403683 -0.2757647
-0.2517088 0.2660516 0.08733851 -0.20282643 -0.23787752 0.33326316 0.2708462 -0.1615866
-0.2947445 0.18680175 -0.25891566 0.29655161 -0.3634076 -0.36798298 -0.22677067 0.491934
-0.3109248 0.26550305 -0.26145872 -0.25610605 0.24258342 0.19219106 0.30248454 0.2102626
0.4071396 -0.2003743 -0.20767023 0.35273674 -0.21151121 0.18859479 0.45289335 -0.32838106
-0.28679973 -0.13244098 -0.16648406 -0.26795214 0.127567 0.30223784 0.4697712 -0.19391088
0.27051455 0.07847355 -0.11747929 0.2346872 -0.26614282 -0.31801805 -0.31801078 -0.1706781
0.27415144 -0.27705175 -0.11936516 -0.27665678 0.4933155 -0.17776227 0.48334292 0.030192444
0.23520994 -0.14928617 0.21374013 0.29006866 0.26794505 -0.41550577 -0.22070552 -0.087797925
0.17903242 0.059305064 0.18967889 -0.21929862 0.41440198 0.30676252 -0.3705736 -0.12890737
0.17827915 0.23404057 0.03394986 0.19785243 0.23070942 0.20280015 0.20939669 0.029803885
0.17166205 -0.17168511 -0.16854292 -0.24771534 -0.1838712 0.20649678 -0.11006898 -0.21714184
0.24799086 0.19531134 0.2046896 -0.29102898 -0.15814452 0.12391938 -0.29090193 -0.30768216
-0.22329001 0.3819506 0.4644709 -0.3962092 0.21113046 -0.28946057 -0.29520705 -0.26064995
00000000: 5b43 a8be 3c0b 803e 6346 d2be 91ee ebbc
00000010: 528f 963e f06a b4be d180 80be 263f a83e
00000020: 8cbe 423e 1852 90be ccad b83e 0cc9 2a3e
00000030: 0d67 353e c603 db3e 4569 a13e 01db 233e
00000040: db03 6b3e f21d 5abe b9b6 833e 9755 0cbe
00000050: 5ec3 8abd 186f 02be 6d08 7bbe 0ce7 8d3e
00000060: a637 a13e 5a21 6abe f517 06be 35b2 e63d
00000070: 149b 673e 61a8 a9be ff92 dfbe 425b 843d
00000080: 9160 8e3e f39e 3ebe 92d4 9b3e 6af2 0bbe
00000090: b8bf 943e 9a36 cc3e 08dc 833e f710 ebbe
000000a0: 8bda a23e 5861 3dbe 2531 e93d eebd 733e
000000b0: 97e2 24be ea6d ffbd 0083 91be 0e1d 5dbe
000000c0: c3f3 a2be 94e8 513e 2726 203e 192f f1be
000000d0: 35ac bb3e 241e 15be 3fc3 b9be 3a94 b43e
000000e0: db35 643e 15ea 423e ef05 673e cfe8 8d3e
000000f0: 9444 29be 331b cabe 5a89 eebe f176 723e
00000100: 50c8 3abe 1407 c5bd f786 023e 76cd 08be
00000110: 87ff 6f3e eb5c d23e e1fb aa3e a3fd 2d3e
00000120: d504 47be 0c96 443e 0422 fd3d bdc1 443e
00000130: aed0 03bf a958 f23d 3101 d9be b512 bbbd
00000140: 1a82 69be a794 3e3e 9ab7 57be f329 33be
00000150: 4e37 4dbe 0d8a bd3e ee71 ac3e b874 7e3e
00000160: 4fa8 3bbd 92f0 d8bc ac48 2cbe 7ed6 583e
00000170: 0de8 98be d1a0 47be bc90 9e3e 7d6a 733e
00000180: c6a3 85be 4f49 b2be 9c51 0dbe 0eca 5abe
00000190: 869a 77be 1a82 7abe 0462 30be bba7 0ebd
000001a0: 4c86 59be 460e bd3d a3c3 023e a63c 863e
000001b0: 76b8 9f3e 9530 58be d12f 343e fdef 143e
000001c0: c44b a3be 01a9 50be 9dc3 39be eea1 aa3e
000001d0: 226b 583e a9a9 81bd f087 8f3e d8c0 853e
000001e0: 517c 583e fcbd 97be 619f c2be 2e73 a53e
000001f0: 7a8d 46be e1f2 203e 256b a43e 23f4 2c3e
00000200: 7de3 cd3e 9013 72be 7101 c43e 81f7 0c3e
00000210: 19d3 bfbe be43 823e f9cc 343e d374 62be
00000220: 8c1f 93be 9b26 823e 40b6 86be 75ec c1bd
00000230: df02 59be af9f c3be 3483 8bbe 9ce4 e8bd
00000240: e42f 72be 9fdb 973e 546c 79be 5ba3 663e
00000250: 4c7a cc3d c623 cf3d 4311 d53d 0831 8dbe
00000260: fadf 80be ea37 883e 88de b23d bbb1 4fbe
00000270: 2a96 73be 78a1 aa3e 5aac 8a3e f576 25be
00000280: c0e8 96be f548 3f3e 9890 84be 9dd5 973e
00000290: 9010 babe 4468 bcbe 9236 68be c6de fb3e
000002a0: 8931 9fbe 04f0 873e ebdd 85be 5520 83be
000002b0: ca67 783e bccd 443e 41df 9a3e 144f 573e
000002c0: 9a74 d03e ec2e 4dbe 81a7 54be e999 b43e
000002d0: 6596 58be fe1e 413e a3e1 e73e 9021 a8be
000002e0: 6ad7 92be 9c9e 07be cc7a 2abe 0631 89be
000002f0: eca0 023e ebbe 9a3e da85 f03e 9390 46be
00000300: e280 8a3e beb6 a03d fb98 f0bd d751 703e
00000310: df43 88be 43d3 a2be 4fd2 a2be 3dc6 2ebe
00000320: 945d 8c3e bad9 8dbe b975 f4bd f5a5 8dbe
00000330: d993 fc3e 5007 36be b978 f73e 2556 f73c
00000340: e0da 703e 79de 18be b1de 5a3e e183 943e
00000350: 1830 893e 2cbd d4be a100 62be 66cf b3bd
00000360: 4654 373e dee9 723d 2f3b 423e d18f 60be
00000370: 7f2c d43e fa0f 9d3e d3bb bdbe 4b00 04be
00000380: cf8e 363e 55a8 6f3e 020f 0b3d d499 4a3e
00000390: 173f 6c3e d8aa 4f3e 166c 563e 4727 f43c
000003a0: 2dc8 2f3e 39ce 2fbe 8496 2cbe 17a9 7dbe
000003b0: bb48 3cbe e473 533e d86b e1bd 6e5a 5ebe
000003c0: 51f1 7d3e b2ff 473e 279a 513e c001 95be
000003d0: a3f0 21be 72c9 fd3d 19f1 94be 8488 9dbe
000003e0: 23a6 64be 078f c33e 21cf ed3e efdb cabe
000003f0: 9532 583e 2d34 94be 6125 97be e973 85be

fc.bias f4 [2]
-0.01455748 -0.118258
00000000: 7f82 6ebc 4031 f2bd
