identifysex/ptfiles/linearsex-32-norm-20250218.pt (torch, 22324 bytes, 8 tensors)

batchnorm.weight f4 [128]
0.97907525 1.0576317 1.0494987 1.0984374 1.066385 0.8315786 0.9134508 0.6612449
1.0312998 1.0934141 1.1547595 1.0418894 0.8998023 1.0394677 0.79124117 1.2084758
0.7861622 1.0282755 0.917142 0.8799679 1.0704701 0.7794851 0.71180654 0.8879027
0.7658778 1.0571901 0.9310474 0.9841699 1.0218812 1.0053284 1.0788639 1.1398733
1.0222867 1.0832293 0.6566428 1.0375078 1.022305 1.2199714 1.0051819 0.89526224
1.2387688 0.8432603 1.0646679 0.9765153 1.1102797 1.2714112 0.716504 1.0269353
0.9185848 1.0353959 1.1212047 1.0259197 1.0768217 0.912565 1.0435396 1.0453179
1.0123087 0.9408602 0.77393085 1.0665581 0.9617369 1.0780593 1.0719659 1.1639835
0.85433114 1.1598629 0.85102606 0.8116984 0.86985034 1.0515186 1.0387096 1.0695587
0.89656866 0.8818327 1.0472494 1.1355575 1.0410372 0.90028065 1.1457062 0.86421597
1.0336227 0.800634 1.0201144 1.2363056 0.94380754 1.0332515 0.9832361 0.72893924
0.7936623 1.0088035 1.1538355 0.7525264 1.1158848 0.7948053 1.0288448 0.89349675
1.1732345 0.8905569 1.0607816 1.1114075 0.98274046 0.98480546 1.0189397 1.0276116
0.7346845 0.98101616 0.9185275 0.9380883 1.1027786 1.0246783 1.0461379 0.921795
0.8775278 0.9243138 0.9348704 0.95323837 1.047577 0.9399329 0.8120455 1.0513778
0.9068856 0.7859982 0.9588172 0.8717216 0.8626054 1.055326 1.141203 0.82565165
00000000: ada4 7a3f 7a60 873f f955 863f 9999 8c3f
00000010: 4e7f 883f 56e2 543f e9d7 693f 5947 293f
00000020: a201 843f fef4 8b3f 29cf 933f a25c 853f
00000030: 7259 663f 470d 853f c88e 4a3f 56af 9a3f
00000040: ed41 493f 889e 833f d1c9 6a3f 9445 613f
00000050: 2a05 893f 568c 473f f438 363f 974d 633f
00000060: 9110 443f 0152 873f 1f59 6e3f 8ff2 7b3f
00000070: 01cd 823f 9aae 803f 3618 8a3f 5ee7 913f
00000080: 4ada 823f 42a7 8a3f be19 283f 0ecd 843f
00000090: e4da 823f 0628 9c3f cda9 803f e82f 653f
000000a0: fa8f 9e3f e8df 573f 0a47 883f e8fc 793f
000000b0: a51d 8e3f 9abd a23f ce6c 373f 9e72 833f
000000c0: 6028 6b3f da87 843f a383 8f3f 5651 833f
000000d0: 4bd5 893f dc9d 693f b592 853f facc 853f
000000e0: 5593 813f 37dc 703f 5520 463f fa84 883f
000000f0: 6434 763f d9fd 893f 2e36 893f 69fd 943f
00000100: 72b5 5a3f 6376 943f d8dc 593f 77cb 4f3f
00000110: 83ae 5e3f 2998 863f 70f4 843f 4de7 883f
00000120: 8685 653f cabf 613f 450c 863f f359 913f
00000130: b540 853f cb78 663f 80a6 923f 423d 5d3f
00000140: c04d 843f 5af6 4c3f 1c93 823f 433f 9e3f
00000150: 5f9d 713f 9641 843f 5cb5 7b3f c39b 3a3f
00000160: 742d 4b3f 7920 813f e2b0 933f 92a5 403f
00000170: 50d5 8e3f 5c78 4b3f 30b1 833f 34bc 643f
00000180: 8c2c 963f 89fb 633f b1c7 873f 9a42 8e3f
00000190: e194 7b3f 361c 7c3f 9e6c 823f c788 833f
000001a0: 4914 3c3f e023 7b3f 9e24 6b3f 8e26 703f
000001b0: d927 8d3f a928 833f d9e7 853f c2fa 6b3f
000001c0: a9a5 603f d49f 6c3f ab53 6f3f 6e07 743f
000001d0: 0117 863f 719f 703f 37e2 4f3f 8c93 863f
000001e0: a829 683f 2e37 493f 0b75 753f 2629 5f3f
000001f0: b5d3 5c3f ec14 873f f112 923f e85d 533f

batchnorm.bias f4 [128]
0.027215917 -0.031219 0.05951518 -0.19105563 0.026401179 -0.020388486 0.018412795 0.007187933
0.247838 -0.12905648 -0.06915594 -0.024576215 -0.0074281483 0.15392023 0.0128687145 0.1088488
-0.07325312 -0.16982305 0.18389013 -0.004596065 -0.15569864 -0.016124737 -0.104491346 0.041831654
0.22985321 -0.08094684 -0.12168397 0.0024798876 -0.1154392 -0.19642553 0.08651244 0.14590663
0.11662364 0.16958319 -0.054604735 0.14295943 0.056361713 -0.057344735 -0.21864319 -0.07823522
-0.24692284 -0.001183412 0.25386828 0.025130475 -0.088367395 -0.26617992 0.030700225 0.13611694
0.1588555 -0.11484319 -0.25053576 -0.2725141 -0.21793795 -0.19687971 0.17413826 0.05582977
0.25995588 -0.10165636 -0.078096434 -0.15879022 0.21672359 -0.027736181 -0.027075281 -0.062492713
0.36658335 0.15161377 0.07063272 -0.20394681 0.16516109 0.10920847 0.13045748 0.10317938
-0.03943911 -0.013660822 0.14065842 0.018606735 -0.13840094 0.003615788 0.030252313 0.10143343
0.18051048 -0.027287908 -0.14615187 0.16492838 -0.013426339 0.046397734 0.10414273 0.035309374
0.18197513 -0.026889276 0.0407538 -0.11142498 -0.23070426 -0.026259739 -0.14356516 -0.16072525
-0.09593261 0.13238484 -0.07204981 0.09420585 -0.19059137 0.09029697 0.158017 -0.13553189
-0.18806231 0.05894119 -0.22013149 -0.22384335 0.15623787 0.18100797 0.19363135 -0.14511313
-0.12179113 -0.17027886 -0.117087826 0.20212099 -0.035019044 -0.21200775 -0.053481024 0.23221192
0.016497051 0.05452158 0.035327908 0.031636644 -0.11270228 -0.081611484 -0.21118088 0.046678625
00000000: eaf3 de3c fdbe ffbc 30c6 733d 16a4 43be
00000010: 4947 d83c c105 a7bc 6ed6 963c c188 eb3b
00000020: 3fc9 7d3e 6227 04be a1a1 8dbd 0f54 c9bc
00000030: d367 f3bb 449d 1d3e 4dd7 523c 1fec de3d
00000040: bb05 96bd 18e6 2dbe b24d 3c3e 969a 96bb
00000050: 776f 1fbe 0618 84bc 8fff d5bd ab57 2b3d
00000060: a45e 6b3e 75c7 a5bd 7235 f9bd 9c85 223b
00000070: 636b ecbd c623 49be 6f2d b13d 8c68 153e
00000080: 60d8 ee3d 37a7 2d3e 37a9 5fbd f563 123e
00000090: 8adb 663d 50e2 6abd 00e4 5fbe c939 a0bd
000000a0: 57d9 7cbe b81c 9bba 06fb 813e 6dde cd3c
000000b0: f7f9 b4bd bc48 88be 0a7f fb3c 3d62 0b3e
000000c0: 04ab 223e e832 ebbd 3946 80be f886 8bbe
000000d0: 202b 5fbe d69a 49be 4d51 323e c2ad 643d
000000e0: f018 853e 3631 d0bd 06f1 9fbd e799 22be
000000f0: caec 5d3e fd36 e3bc fbcc ddbc 5cf8 7fbd
00000100: d0b0 bb3e a440 1b3e e3a7 903d 6fd7 50be
00000110: fd1f 293e b1a8 df3d a596 053e b64f d33d
00000120: e78a 21bd a4d1 5fbc c308 103e 276d 983c
00000130: fab8 0dbe dbf6 6c3b b3d3 f73c 55bc cf3d
00000140: bdd7 383e e48a dfbc d6a8 15be fce2 283e
00000150: 26fa 5bbc 8d0b 3e3d c948 d53d 90a0 103d
00000160: b057 3a3e e646 dcbc 75ed 263d c832 e4bd
00000170: bd3d 6cbe aa1e d7bc bf02 13be 2995 24be
00000180: 5178 c4bd e48f 073e da8e 93bd ffee c03d
00000190: 622a 43be 9eed b83d 35cf 213e dfc8 0abe
000001a0: 6893 40be 516c 713d 266a 61be 3137 65be
000001b0: d2fc 1f3e 275a 393e 4c47 463e 8998 14be
000001c0: a16d f9bd 955d 2ebe becb efbd cef8 4e3e
000001d0: 2170 0fbd 8f18 59be eb0e 5bbd f6c8 6d3e
000001e0: d324 873c 0552 5f3d ffb3 103d 6d95 013d
000001f0: 74d0 e6bd ec23 a7bd cd3f 58be 1632 3f3d

batchnorm.running_mean f4 [128]
-0.080789976 0.06902699 0.056506082 -0.08531838 -0.110067986 -0.019109357 -0.087808594 -0.10848714
0.13825664 -0.14574067 0.19473405 -0.076682456 -0.18174891 -0.017086588 -0.056337085 0.2094313
-0.18090263 -0.16536255 -0.02419124 0.006167658 0.061534915 0.037105933 -0.005666434 0.06689446
-0.11900602 -0.3253849 -0.099084236 -0.04605669 -0.01583464 -0.055924345 -0.0475549 0.051970415
-0.17580977 -0.012392586 0.044357374 0.111936055 0.0037754767 -0.09429777 0.16898549 0.022105409
-0.28677204 0.058501795 0.09024366 0.24316868 0.17961697 0.0013882979 -0.0027547858 -0.13705583
0.12667811 -0.1785346 0.035453737 0.13201346 0.07823179 0.052448027 0.013856325 -0.121078014
0.040812094 0.13452291 -0.15076111 0.0004892677 0.09827617 -0.061594065 0.03323573 -0.10189052
0.19121698 0.08997575 -0.09944042 -0.20864204 0.1109552 -0.1500702 -0.10367662 0.07320885
-0.14716455 -0.175965 -0.3008866 -0.0068798605 0.34964317 0.12959652 -0.17111617 0.078731716
0.0032439965 -0.021365229 0.10399719 0.17515746 0.007916241 0.0441759 -0.0704618 0.011706722
0.25684094 -0.04176337 -0.014879157 0.20894915 -0.0098300455 0.051579066 0.022957794 0.032760985
-0.0871482 0.041127585 -0.15894559 -0.01638793 -0.027923176 0.004974374 -0.012293971 0.13043164
-0.16688903 0.1351814 -0.022408014 -0.004791224 -0.019553974 0.030418802 -0.066511765 -0.05007912
0.12490851 -0.20370536 0.16020636 0.16255532 0.08202584 0.09901413 0.1255114 0.07434072
-0.004265056 -0.012249702 -0.21161991 -0.019005977 0.09529447 -0.05042602 0.101268366 0.024013065
00000000: 3775 a5bd 065e 8d3d ec72 673d 67bb aebd
00000010: 536b e1bd 3a8b 9cbc fed4 b3bd 812e debd
00000020: 2693 0d3e 0b3d 15be 5d68 473e b10b 9dbd
00000030: 631c 3abe 2cf9 8bbc b7c1 66bd 2975 563e
00000040: 8a3e 39be cd54 29be b52c c6bc 111a ca3b
00000050: 090c 7c3d 64fc 173d 7ead b9bb f6ff 883d
00000060: 6eb9 f3bd da98 a6be adec cabd f1a5 3cbd
00000070: a6b7 81bc ed10 65bd edc8 42bd eede 543d
00000080: 7a07 34be 460a 4bbc 14b0 353d bb3e e53d
00000090: fd6d 773b 301f c1bd 880a 2d3e 6716 b53c
000000a0: c9d3 92be 949f 6f3d abd1 b83d 3601 793e
000000b0: 83ed 373e 8cf7 b53a a389 34bb 5d58 0cbe
000000c0: e8b7 013e c6d1 36be f037 113d 892e 073e
000000d0: fd37 a03d bed3 563d a405 633c c0f7 f7bd
000000e0: 952a 273d 60c0 093e 1f61 1abe 3342 003a
000000f0: 0445 c93d 0f4a 7cbd 3022 083d faab d0bd
00000100: 62ce 433e 3545 b83d 6ba7 cbbd 42a6 55be
00000110: 7b3c e33d 01ac 19be 6854 d4bd 86ee 953d
00000120: 4eb2 16be 2b30 34be cf0d 9abe 7470 e1bb
00000130: 6e04 b33e f3b4 043e 1439 2fbe 183e a13d
00000140: 3b99 543b 2206 afbc 7bfc d43d 7a5c 333e
00000150: 1fb3 013c caf1 343d 474e 90bd 8dcd 3f3c
00000160: a880 833e 1110 2bbd b5c7 73bc c4f6 553e
00000170: 330e 21bc 9244 533d fc11 bc3c 6230 063d
00000180: c17a b2bd 6675 283d a2c2 22be fb3f 86bc
00000190: 25bf e4bc 1300 a33b a76c 49bc df8f 053e
000001a0: f5e4 2abe fe6c 0a3e 0391 b7bc b3ff 9cbb
000001b0: a82f a0bc da30 f93c 5237 88bd c31f 4dbd
000001c0: 08d0 ff3d 2398 50be 230d 243e e774 263e
000001d0: 2afd a73d ecc7 ca3d 0f86 003e f33f 983d
000001e0: e2c1 8bbb f9b2 48bc e4b2 58be 6cb2 9bbc
000001f0: bf29 c33d 848b 4ebd ca65 cf3d 0cb7 c43c

batchnorm.running_var f4 [128]
0.0013478954 0.0014569545 0.0014995697 0.0016516795 0.0013175975 0.0013479702 0.00122991 0.0014076865
0.0010638393 0.0019694457 0.0016617432 0.0018455649 0.0010440695 0.0023175152 0.0010177708 0.001502503
0.0012940223 0.0011167143 0.0011191426 0.0010694526 0.0014660157 0.0013605808 0.0013888299 0.001044071
0.0013980936 0.0014112087 0.0009555032 0.0011013155 0.0024945263 0.0010881608 0.0013759943 0.002044317
0.0010862963 0.0016400199 0.0012506515 0.0015769688 0.00092249137 0.0016098181 0.0010516089 0.0015741597
0.0019849257 0.0016160514 0.0014815007 0.0010006372 0.001181551 0.0015918062 0.0010521475 0.0012444184
0.0010270685 0.0015807814 0.001728658 0.0011191742 0.001440418 0.0010481607 0.0010745585 0.00094925746
0.0012066766 0.0014350958 0.0015311353 0.0014460245 0.0011346971 0.0015165197 0.0014857141 0.0016596831
0.0014584438 0.0019619635 0.0008805351 0.0014543853 0.00094349904 0.0010599471 0.001292977 0.0013893681
0.000959131 0.0010343025 0.0015553525 0.001531182 0.001841784 0.0014508441 0.0012210831 0.001283352
0.0015506044 0.0017893187 0.001711261 0.0018449255 0.0015144754 0.0015636072 0.0011293446 0.0012927515
0.0011182994 0.0009871873 0.0011084024 0.0012001285 0.0010690641 0.0014220861 0.001061433 0.0014762828
0.0011135971 0.0010459542 0.0014854115 0.0014352808 0.0022540076 0.001605986 0.0011393264 0.0011158106
0.0012197399 0.001435333 0.0007964338 0.0018297676 0.0020236524 0.0017717363 0.0014359504 0.0012113588
0.0009474753 0.0010692367 0.0013710592 0.001121936 0.0014213722 0.0011043525 0.0012163376 0.0013192967
0.0009430649 0.0018043915 0.0014512946 0.0008848301 0.0013743377 0.0011983498 0.0017373166 0.00088328763
00000000: ddab b03a 48f7 be3a 368d c43a 2b7d d83a
00000010: 3cb3 ac3a 60ae b03a ee34 a13a 1f82 b83a
00000020: 8670 8b3a d111 013b d9ce d93a e2e6 f13a
00000030: 29d9 883a 74e1 173b b966 853a a2ef c43a
00000040: 2f9c a93a b75e 923a 32b0 923a e02c 8c3a
00000050: 5327 c03a 8455 b23a 6609 b63a 36d9 883a
00000060: 3d40 b73a 4ef8 b83a bc7a 7a3a 045a 903a
00000070: 357b 233b 9ea0 8e3a b55a b43a f3f9 053b
00000080: 0e62 8e3a f0f5 d63a e7ec a33a 4bb2 ce3a
00000090: 59d3 713a 8800 d33a 24d6 893a 0954 ce3a
000000a0: 8715 023b b0d1 d33a ea2e c23a d027 833a
000000b0: 46de 9a3a 27a4 d03a 36e8 893a c11b a33a
000000c0: b39e 863a 3932 cf3a 2394 e23a 41b1 923a
000000d0: 68cc bc3a 7062 893a 33d8 8c3a 97d7 783a
000000e0: 5929 9e3a d319 bc3a 60b0 c83a 8888 bd3a
000000f0: 1eba 943a f5c5 c63a 4bbc c23a b989 d93a
00000100: 4129 bf3a 4994 003b b6d3 663a 13a1 be3a
00000110: 2655 773a eced 8a3a 1c79 a93a 751b b63a
00000120: 316e 7b3a 6f91 873a f8dc cb3a f1b1 c83a
00000130: 0468 f13a 402a be3a c00c a03a 2636 a83a
00000140: a63d cb3a 9387 ea3a 644c e03a 6dd1 f13a
00000150: 5d81 c63a f4f1 cc3a 8406 943a 8b71 a93a
00000160: e793 923a 8264 813a d047 913a a14d 9d3a
00000170: d71f 8c3a 4b65 ba3a c81f 8b3a d57f c13a
00000180: 1ef6 913a 6618 893a 24b2 c23a 0820 bc3a
00000190: f9b7 133b f37f d23a 7355 953a 6440 923a
000001a0: aedf 9f3a c921 bc3a c4c7 503a d0d4 ef3a
000001b0: 419f 043b 9b39 e83a 8036 bc3a 75c6 9e3a
000001c0: fe5f 783a a125 8c3a 1db5 b33a ed0d 933a
000001d0: 564d ba3a ecbf 903a 846d 9f3a 40ec ac3a
000001e0: 0438 773a 5581 ec3a 5e39 be3a f1f3 673a
000001f0: 1f23 b43a f211 9d3a acb6 e33a 6e8c 673a

map_fc.weight f4 [32, 128]
0.08776383 -0.23259462 0.01311329 -0.18781273 -0.16447677 0.0076171337 -0.124794535 -0.028016271
-0.029621953 -0.2380979 -0.18321544 -0.03835812 0.072933845 0.09828507 -0.0734914 0.21260582
-0.058187645 0.06485218 0.20439656 0.059953105 -0.18638864 0.015636118 0.039309286 -0.025617678
0.2068779 0.013942132 -0.04015395 0.09111773 -0.17925742 0.08737525 0.015058263 0.10043421
0.14976086 -0.055092122 -0.023083087 -0.04761395 0.22462575 -0.13651548 0.123707 -0.040427804
0.070315465 -0.021063486 0.25915024 -0.09096735 -0.20263569 -0.073269784 -0.14889593 -0.012084041
0.027398232 0.08169076 -0.055556547 -0.21151671 -0.070774 -0.25624412 0.1612859 0.18170026
0.25600246 -0.02605857 0.06809774 0.10707495 0.06534943 0.116179116 0.028213 0.028328307
-0.012632344 0.015832607 0.026603714 0.038737934 0.10856929 0.030580157 0.079827204 -0.08479456
8.961466e-05 0.05054016 0.1378635 -0.06435862 -0.08358798 0.17172271 -0.06285718 0.11277773
0.04584773 -0.11270587 0.14024663 0.25714624 0.1691728 -0.05122963 0.04898231 0.0028466466
0.12798448 0.04727106 0.103651166 -0.049788874 0.025736766 0.0075145033 -0.19543107 -0.1956914
-0.07876972 0.024277313 0.12909539 -0.008722507 0.1446641 0.02926263 0.036927633 0.00838018
-0.21297692 -0.011688877 -0.03442944 -0.08030419 0.09155143 0.11040877 0.10395336 0.07712797
0.059048053 0.06067073 -0.020483144 -0.111630924 0.008985422 -0.016352508 -0.124969095 0.0026550351
0.08551843 0.07829732 -0.11527979 -0.20116356 -0.12266671 -0.2564683 -0.10062554 0.012648992
0.12773491 0.009323134 0.07596631 -0.027003122 0.25364664 0.05966586 -0.19255994 0.013472424
0.27558652 -0.08875456 -0.33142155 0.19533229 -0.045657337 -0.08689301 -0.003826683 0.13952121
0.17134532 -0.10561029 0.1010809 0.05246435 0.077917464 0.16164564 0.1618999 0.07784645
-0.010347385 -0.08315351 -0.014800074 0.09914998 -0.09093444 -0.22721598 0.23646106 0.122791804
-0.09836457 -0.0076586367 -0.07377687 0.22986999 -0.063215554 -0.21372624 -0.08822674 0.11911206
-0.52776986 -0.34868708 -0.09195115 -0.045159183 -0.14194416 -0.076416686 0.056634985 0.12196668
0.05488895 0.023973843 0.06517391 -0.04685154 0.012618201 -0.03439237 -0.0194292 -0.018664727
0.13807604 0.003358254 -0.20774536 -0.24901551 0.07287588 -0.2581018 0.19730216 0.10528981
-0.16362391 0.16731979 0.21643788 0.012122274 -0.047668718 0.19670904 0.09269472 0.059989076
0.044237286 -0.12369237 -0.09696704 -0.19822453 -0.13157608 0.010610416 0.001710171 0.019190593
0.12325893 0.104817085 -0.06056886 0.35429612 0.011136385 0.34988904 0.24350937 0.12156014
-0.16950557 0.07865299 -0.25839806 0.05545567 -0.13011482 0.039582837 0.119970344 -0.031041516
-0.03118831 0.14080928 -0.007961239 0.29709092 0.08730932 0.32647547 0.0034791476 -0.011838613
0.16370639 0.18364622 -0.12694833 0.11148332 0.28303945 0.2260483 -0.10522149 -0.11140683
-0.25813687 0.044446427 0.019638136 -0.050604057 -0.119624585 0.087566644 -0.16684277 0.11798979
-0.061214 -0.019659791 0.11070187 0.074038774 0.063611485 -0.04934865 -0.10457776 -0.006800117
00000000: 86bd b33d 492d 6ebe 20d9 563c fb51 40be
00000010: 996c 28be 2699 f93b 4794 ffbd 6182 e5bc
00000020: bda9 f2bc f0cf 73be d49c 3bbe 671d 1dbd
00000030: 575e 953d af49 c93d a982 96bd 57b5 593e
00000040: 2b56 6ebd 38d1 843d 554d 513e 6391 753d
00000050: aadc 3ebe 5117 803c c602 213d 2adc d1bc
00000060: cdd7 533e 8a6d 643c 7878 24bd ef9b ba3d
00000070: 428f 37be ccf1 b23d efb6 763c 73b0 cd3d
00000080: e95a 193e 47a8 61bd be18 bdbc d806 43bd
00000090: 4b04 663e b7ca 0bbe 185a fd3d a097 25bd
000000a0: 8e01 903d 558d acbc 57af 843e 174d babd
000000b0: bb7f 4fbe 780e 96bd 2d78 18be 24fc 45bc
000000c0: 4272 e03c 7c4d a73d 438f 63bd d697 58be
000000d0: f5f1 90bd 6e32 83be 2228 253e a20f 3a3e
000000e0: c112 833e c878 d5bc d476 8b3d 1d4a db3d
000000f0: ecd5 853d 51ef ed3d f31e e73c c410 e83c
00000100: e4f7 4ebc 62b3 813c 08f0 d93c abab 1e3d
00000110: 9359 de3d 3d83 fa3c 727c a33d c5a8 adbd
00000120: 81ef bb38 3303 4f3d 172c 0d3e 74ce 83bd
00000130: 2d30 abbd 14d8 2f3e 44bb 80bd 03f8 e63d
00000140: d4ca 3b3d 56d2 e6bd d09c 0f3e aca8 833e
00000150: a23b 2d3e 29d6 51bd ada1 483d ce8e 3a3b
00000160: 5d0e 033e 4d9f 413d 1047 d43d 6bef 4bbd
00000170: e9d5 d23c 393c f63b 151f 48be 5463 48be
00000180: 0552 a1bd 37e1 c63c 9531 043e d9e8 0ebc
00000190: d322 143e 2fb8 ef3c 6e41 173d 064d 093c
000001a0: 9f16 5abe b482 3fbc e205 0dbd 8676 a4bd
000001b0: 517f bb3d fe1d e23d 80e5 d43d 45f5 9d3d
000001c0: 5fdc 713d df81 783d 44cc a7bc c19e e4bd
000001d0: 9737 133c b2f5 85bc ccef ffbd 1900 2e3b
000001e0: 4924 af3d 585a a03d cf17 ecbd d2fd 4dbe
000001f0: af38 fbbd d04f 83be c314 cebd b83d 4f3c
00000200: f1cc 023e 0fc0 183c 3a94 9b3d a735 ddbc
00000210: f9dd 813e 3064 743d 6f2e 45be 71bb 5c3c
00000220: ad19 8d3e f3c4 b5bd 16b0 a9be 3005 483e
00000230: 3003 3bbd f6f4 b1bd 16c9 7abb a6de 0e3e
00000240: 2675 2f3e 354a d8bd 8103 cf3d dce4 563d
00000250: 3193 9f3d 6f86 253e 16c9 253e f66d 9f3d
00000260: 1488 29bc 634c aabd 027c 72bc 250f cb3d
00000270: d63b babd 4eab 68be d922 723e 457a fb3d
00000280: 5d73 c9bd 4df5 fabb 5418 97bd 0a63 6b3e
00000290: 2877 81bd 0ddb 5abe 39b0 b4bd 06f1 f33d
000002a0: ed1b 07bf 1d87 b2be e250 bcbd d6f8 38bd
000002b0: cf59 11be 5a80 9cbd 16fa 673d abc9 f93d
000002c0: 3cd3 603d cb64 c43c e679 853d 67e7 3fbd
000002d0: 92bc 4e3c 04df 0cbd fc29 9fbc c5e6 98bc
000002e0: ce63 0d3e 2716 5c3b 33bb 54be ecfd 7ebe
000002f0: f33f 953d eb25 84be 9409 4a3e 2fa2 d73d
00000300: 078d 27be e155 2b3e e4a1 5d3e 819c 463c
00000310: 4640 43bd 186e 493e bbd6 bd3d 1bb7 753d
00000320: 2832 353d 6d52 fdbd a896 c6bd 5ffb 4abe
00000330: e1bb 06be 4fd7 2d3c d127 e03a 9735 9d3c
00000340: 2e6f fc3d 57aa d63d 0e17 78bd 4d66 b53e
00000350: 6275 363c a824 b33e 855a 793e 86f4 f83d
00000360: de92 2dbe d214 a13d c04c 84be 7c25 633d
00000370: d23c 05be 9d21 223d 03b3 f53d c74a febc
00000380: a07e ffbc 4f30 103e db6f 02bc 4d1c 983e
00000390: 3bcf b23d cb27 a73e 6902 643b bef6 41bc
000003a0: a6a2 273e c10d 3c3e befe 01be 5e51 e43d
000003b0: 8cea 903e 3579 673e 5d7e d7bd 4429 e4bd
000003c0: 842a 84be 750d 363d 28e0 a03c 3346 4fbd
000003d0: bcfd f4bd 2456 b33d d5d8 2abe a2a4 f13d
000003e0: 88bb 7abd 920d a1bc a9b7 e23d a4a1 973d
000003f0: bd46 823d cf21 4abd dd2c d6bd 84d3 debb

map_fc.bias f4 [32]
0.13970174 0.09921581 -0.09392582 0.056699768 -0.086372435 -0.049098257 0.08789631 0.28329268
-0.18612373 0.110960595 0.24102747 -0.20638233 -0.23849833 -0.29012823 0.2522977 -0.0655528
-0.18297872 0.07733582 0.18893446 -0.4252723 -0.035120744 -0.022976423 -0.0762402 -0.09245038
-0.26831365 0.015988698 0.21525677 -0.20326303 0.25134534 -0.22090444 0.06569551 0.01449686
00000000: f90d 0f3e a931 cb3d 2e5c c0bd 043e 683d
00000010: 08e4 b0bd 411b 49bd fb02 b43d bd0b 913e
00000020: 3897 3ebe 4f3f e33d e8cf 763e e455 53be
00000030: e838 74be b08b 94be 2a2d 813e 8c40 86bd
00000040: c65e 3bbe 3e62 9e3d 0978 413e 4abd d9be
00000050: c5da 0fbd 0d39 bcbc d223 9cbd a056 bdbd
00000060: 6860 89be bbfa 823c 456c 5c3e 2f24 50be
00000070: 56b0 803e c634 62be 5e8b 863d 3d84 6d3c

fc.weight f4 [2, 32]
-0.08672647 0.041484684 -0.040104806 0.15460296 -0.12389996 0.023427052 -0.0646377 0.09536611
0.13331206 0.11955077 0.056594864 -0.16187795 0.02375715 -0.09907457 0.054800063 0.024597153
-0.14788397 -0.125141 -0.088703305 -0.1554439 -0.06826668 -0.06640731 0.09855967 0.08414854
-0.13182884 -0.023799464 0.04175154 -0.044816747 0.04242515 -0.015494598 -0.15526623 0.14593886
-0.090132356 -0.102167785 0.04500403 0.06539421 0.11740797 -0.008257928 -0.1535888 -0.10717553
0.13988765 -0.12946956 -0.13485003 0.059597448 0.08703007 0.051050425 -0.12790427 0.07199059
0.06844405 -0.14565259 -0.19688943 0.055526476 0.08494348 -0.10853673 0.053781793 0.15481058
-0.013099818 0.11547331 -0.1263407 0.18786827 -0.23900713 0.06655298 0.1043804 -0.05634802
00000000: a69d b1bd d8eb 293d f044 24bd 3d50 1e3e
00000010: 43bf fdbd 17ea bf3c c560 84bd 4f4f c33d
00000020: f582 083e 09d7 f43d 04d0 673d 55c3 25be
00000030: 5b9e c23c 9ce7 cabd 0876 603d f87f c93c
00000040: e56e 17be f624 00be 14aa b5bd b02c 1fbe
00000050: 67cf 8bbd 8e00 88bd a7d9 c93d 1256 ac3d
00000060: 24fe 06be 18f7 c2bc aa03 2b3d c491 37bd
00000070: fec5 2d3d 0edd 7dbc 1cfe 1ebe ff70 153e
00000080: 5097 b8bd 583d d1bd 2556 383d 66ed 853d
00000090: 9773 f03d 434c 07bc 6246 1dbe d87e dbbd
000000a0: b53e 0f3e ab93 04be 2016 0abe 741c 743d
000000b0: d23c b23d 401a 513d 56f9 02be cd6f 933d
000000c0: 652c 8c3d f425 15be 629d 49be bb6f 633d
000000d0: d9f6 ad3d 8148 debd 4c4a 5c3d aa86 1e3e
000000e0: 9ea0 56bc 457d ec3d 755f 01be 8a60 403e
000000f0: 49be 74be ee4c 883d 64c5 d53d 2ecd 66bd

fc.bias f4 [2]
0.1630524 -0.3152302
00000000: 35f7 263e da65 a1be
